train 24000
test 6000
validate 0
WORKER 1
DQNModel(
  (policy_layer): Sequential(
    (0): Linear(in_features=285, out_features=512, bias=True)
    (1): Dropout(p=0.5, inplace=False)
    (2): LeakyReLU(negative_slope=0.01)
    (3): Linear(in_features=512, out_features=512, bias=True)
    (4): Dropout(p=0.5, inplace=False)
    (5): LeakyReLU(negative_slope=0.01)
    (6): Linear(in_features=512, out_features=65, bias=True)
  )
)
WORKER 4
DQNModel(
  (policy_layer): Sequential(
    (0): Linear(in_features=357, out_features=512, bias=True)
    (1): Dropout(p=0.5, inplace=False)
    (2): LeakyReLU(negative_slope=0.01)
    (3): Linear(in_features=512, out_features=512, bias=True)
    (4): Dropout(p=0.5, inplace=False)
    (5): LeakyReLU(negative_slope=0.01)
    (6): Linear(in_features=512, out_features=89, bias=True)
  )
)
WORKER 5
DQNModel(
  (policy_layer): Sequential(
    (0): Linear(in_features=294, out_features=512, bias=True)
    (1): Dropout(p=0.5, inplace=False)
    (2): LeakyReLU(negative_slope=0.01)
    (3): Linear(in_features=512, out_features=512, bias=True)
    (4): Dropout(p=0.5, inplace=False)
    (5): LeakyReLU(negative_slope=0.01)
    (6): Linear(in_features=512, out_features=68, bias=True)
  )
)
WORKER 6
DQNModel(
  (policy_layer): Sequential(
    (0): Linear(in_features=264, out_features=512, bias=True)
    (1): Dropout(p=0.5, inplace=False)
    (2): LeakyReLU(negative_slope=0.01)
    (3): Linear(in_features=512, out_features=512, bias=True)
    (4): Dropout(p=0.5, inplace=False)
    (5): LeakyReLU(negative_slope=0.01)
    (6): Linear(in_features=512, out_features=58, bias=True)
  )
)
WORKER 7
DQNModel(
  (policy_layer): Sequential(
    (0): Linear(in_features=228, out_features=512, bias=True)
    (1): Dropout(p=0.5, inplace=False)
    (2): LeakyReLU(negative_slope=0.01)
    (3): Linear(in_features=512, out_features=512, bias=True)
    (4): Dropout(p=0.5, inplace=False)
    (5): LeakyReLU(negative_slope=0.01)
    (6): Linear(in_features=512, out_features=46, bias=True)
  )
)
WORKER 12
DQNModel(
  (policy_layer): Sequential(
    (0): Linear(in_features=243, out_features=512, bias=True)
    (1): Dropout(p=0.5, inplace=False)
    (2): LeakyReLU(negative_slope=0.01)
    (3): Linear(in_features=512, out_features=512, bias=True)
    (4): Dropout(p=0.5, inplace=False)
    (5): LeakyReLU(negative_slope=0.01)
    (6): Linear(in_features=512, out_features=51, bias=True)
  )
)
WORKER 13
DQNModel(
  (policy_layer): Sequential(
    (0): Linear(in_features=276, out_features=512, bias=True)
    (1): Dropout(p=0.5, inplace=False)
    (2): LeakyReLU(negative_slope=0.01)
    (3): Linear(in_features=512, out_features=512, bias=True)
    (4): Dropout(p=0.5, inplace=False)
    (5): LeakyReLU(negative_slope=0.01)
    (6): Linear(in_features=512, out_features=62, bias=True)
  )
)
WORKER 14
DQNModel(
  (policy_layer): Sequential(
    (0): Linear(in_features=297, out_features=512, bias=True)
    (1): Dropout(p=0.5, inplace=False)
    (2): LeakyReLU(negative_slope=0.01)
    (3): Linear(in_features=512, out_features=512, bias=True)
    (4): Dropout(p=0.5, inplace=False)
    (5): LeakyReLU(negative_slope=0.01)
    (6): Linear(in_features=512, out_features=69, bias=True)
  )
)
WORKER 19
DQNModel(
  (policy_layer): Sequential(
    (0): Linear(in_features=309, out_features=512, bias=True)
    (1): Dropout(p=0.5, inplace=False)
    (2): LeakyReLU(negative_slope=0.01)
    (3): Linear(in_features=512, out_features=512, bias=True)
    (4): Dropout(p=0.5, inplace=False)
    (5): LeakyReLU(negative_slope=0.01)
    (6): Linear(in_features=512, out_features=73, bias=True)
  )
)
MASTER
DQNModel2(
  (policy_layer): Sequential(
    (0): Linear(in_features=888, out_features=512, bias=True)
    (1): Dropout(p=0.1, inplace=False)
    (2): LeakyReLU(negative_slope=0.01)
    (3): Linear(in_features=512, out_features=512, bias=True)
    (4): Dropout(p=0.1, inplace=False)
    (5): LeakyReLU(negative_slope=0.01)
    (6): Linear(in_features=512, out_features=10, bias=True)
  )
)
EPOCH  0 
-------------------------------------------------

Batch - [Master agent] cur bellman err 0.0000, experience replay pool 0
Simulation starting.....
  0 simulation success rate 0.0, ave reward -298.32, ave turns 42.5, ave wrong disease 0.0
Evaluating Epoch  0
disease_replay:5,loss:4.3721, test_acc:0.2000
  0 simulation SR [0.0], ave reward -363.99, ave turns 43.0, ave match rate 0.02, ave match rate2 0.097, ave repeated 1.0
…
